trained_autoencoder_conv_halfsize_linear_1024.pth (torch, 52354 bytes, 11 tensors)

encoder.0.weight f4 [8, 1, 3, 3]
0	0xbda953b4	-0.08267918
1	0x3d0baf69	0.03410283
2	0x3da52c66	0.08065109
3	0xbeb757c8	-0.3580916
4	0xbea15766	-0.31511992
5	0xbd89429f	-0.0670216
6	0xbd4e7e44	-0.050413385
7	0x3ea98413	0.33108577
8	0x3f071d16	0.52778757
9	0xbc6d5c88	-0.014487393
10	0xbe56111f	-0.20904969
11	0x3e3bd9cd	0.18344803
12	0x3ca0a73b	0.019610992
13	0x3e421828	0.18954527
14	0x3edf70e0	0.43640804
15	0x3dfd8dc5	0.12380556
16	0xbdd6f8f1	-0.104967006
17	0x3ee5c4be	0.44876665
18	0xbda4331f	-0.08017563
19	0x3e827907	0.25482962
20	0xbe1de4b0	-0.15419269
21	0x3ec18fe5	0.37805095
22	0x3f92311b	1.1421236
23	0x3e418de7	0.18901788
24	0xbefeceb5	-0.4976708
25	0xbe313bb1	-0.17307927
26	0xbeeef4db	-0.46671185
27	0xbddda9f3	-0.10823431
28	0xbd99459d	-0.07483981
29	0x3ed919e1	0.42402557
30	0xbf042ab1	-0.5162764
31	0xbed65984	-0.4186517
32	0x3c6dc9bd	0.01451343
33	0xbebd8208	-0.37013268
34	0xbf458a30	-0.7716398
35	0xbe83eba4	-0.25765717
36	0x3d069080	0.03285265
37	0xbec7d031	-0.39026025
38	0xbede2024	-0.43383896
39	0xbed03dec	-0.40672243
40	0xbef44861	-0.4771147
41	0xbf198cb4	-0.5998032
42	0xbd526bac	-0.051372215
43	0xbe858fb1	-0.2608619
44	0xbeea2cc1	-0.4573727
45	0xbe307ecc	-0.17235869
46	0xbe90da76	-0.28291672
47	0xbe33ab05	-0.17545708
48	0xbd7af432	-0.06126804
49	0x3f393f82	0.7236253
50	0xbe33a6a8	-0.17544043
51	0xbeb17b36	-0.34664315
52	0x3f087a01	0.53311163
53	0xbddfbbc5	-0.10924486
54	0xbdae1565	-0.085001744
55	0x3e1c5bbc	0.15269369
56	0x3d528558	0.051396698
57	0xbe996811	-0.2996221
58	0x3e3ee6a7	0.18642674
59	0x3e46e03d	0.19421478
60	0x3e50b464	0.20381314
61	0x3f15746f	0.5838079
62	0x3da45dd2	0.08025707
63	0x3d8ec5de	0.06971334
64	0xbf14b84d	-0.5809372
65	0xbe502f09	-0.20330442
66	0x3f096ecb	0.5368468
67	0xbe6cafce	-0.23113939
68	0xbf1fbe02	-0.62399304
69	0x3f5d61b3	0.864772
70	0x3efe10ef	0.49622294
71	0x3ccb4cac	0.024816833

encoder.0.bias f4 [8]
0	0x3e696009	0.22790541
1	0x3baf5759	0.005350989
2	0x3ea5574b	0.32293162
3	0x3e4c4a7e	0.19950292
4	0x3e746a09	0.23868574
5	0xbef2c625	-0.47416797
6	0x3c7a5513	0.015279072
7	0x3ec5e9fc	0.38655078

encoder.2.weight f4 [16, 8, 3, 3]
0	0xbcf42e09	-0.029807108
1	0xbe8c9544	-0.2745763
2	0xbd8a3c89	-0.067498274
3	0xbe83e949	-0.2576392
4	0x3e1e5551	0.15462233
5	0x3e431cfc	0.19054025
6	0x3bdc5d42	0.0067249844
7	0x3e60d239	0.21955194
8	0x3db41454	0.0879294
9	0xbe46051e	-0.1933789
10	0x3d12a073	0.035797548
11	0x3dec67f8	0.11543268
12	0x3c91a8b0	0.017780632
13	0x3f160fa9	0.58617646
14	0x3d5321ea	0.051546015
15	0xbe250de1	-0.16118576
16	0x3dbb80d1	0.09155429
17	0xbe39596e	-0.18100521
18	0x3a5c0c46	0.0008394163
19	0x3def7bf4	0.11693564
20	0x3e1db2a6	0.1540018
21	0x3df6bba1	0.12047506
22	0x3ebb68bd	0.36603346
23	0xbe1b4b19	-0.15165366
24	0x3e116e6f	0.14202283
25	0xbe4fa9a0	-0.2027955
26	0xbafd5c0f	-0.0019329804
27	0xbdc62c21	-0.09676386
28	0x3ea65fd5	0.3249499
29	0x3d8c5e80	0.06853962
30	0xbe0e1c8b	-0.13878076
31	0x3e166c33	0.14689712
32	0xbf36aa55	-0.71353656
33	0xbe3bdf93	-0.18347006
34	0x3ee896d4	0.45427573
35	0xbcfde58b	-0.030993244
36	0x3dbdf142	0.09274532
37	0xbd3819bc	-0.044946417
38	0x3d517957	0.05114111
39	0x3df3fdac	0.119136184
40	0xbf1c13c3	-0.60967654
41	0x3e93b334	0.2884766
42	0x3da37c7a	0.079827264
43	0xbeab39ab	-0.33442435
44	0x3e4a5a13	0.19760923
45	0xbe1e0ea6	-0.15435275
46	0x3e8f0c04	0.27938855
47	0xbeced11b	-0.4039391
48	0x3e6ecc93	0.23320226
49	0x3eb2a422	0.34890848
50	0x3c1e0ce0	0.009646624
51	0x3e57c659	0.21071757
52	0xbee4dd6c	-0.4470018
53	0xbe9d479b	-0.30718693
54	0xbe7e88c3	-0.24856858
55	0xbe448983	-0.19193082
56	0xbeb247ab	-0.34820303
57	0xbcb015b8	-0.021494731
58	0x3ed332a6	0.4124958
59	0xbdf4cedb	-0.11953517
60	0x3df4c1d8	0.11951035
61	0x3e2f752c	0.17134541
62	0xbe6e68fe	-0.23282239
63	0x3dec0d36	0.11525957
64	0xbc3da847	-0.011575765
65	0xbe3aa129	-0.1822554
66	0x3d12e4fe	0.035862915
67	0xbe42ed3f	-0.19035815
68	0x3e9a9f3e	0.30199617
69	0xbd1b474f	-0.037909802
70	0xbdd4a8dd	-0.103837706
71	0x3da3a893	0.07991137
72	0x3e67d0ac	0.22638196
73	0xbe8e7d4c	-0.2782997
74	0xbe48297f	-0.1954708
75	0xbdb903c1	-0.09033919
76	0xbdcb3f17	-0.09924143
77	0xbd9c3cb4	-0.07628766
78	0x3d9e9f7c	0.07745263
79	0xbed74a57	-0.42048904
80	0xbce2177a	-0.027599085
81	0x3e06e3fd	0.13172908
82	0xbde3e387	-0.11127382
83	0xbde88a7b	-0.11354538
84	0xbd43776d	-0.047721315
85	0xbd3b21fd	-0.04568671
86	0x3e339490	0.17537141
87	0x3e6a99eb	0.22910278
88	0xbd031566	-0.03200283
89	0xbce07a5e	-0.0274021
90	0x392476ad	0.00015684469
91	0xbc91d38f	-0.017801074
92	0xbe1f9bb6	-0.15586743
93	0xbc3ed2c3	-0.011646929
94	0x3e14279a	0.14468232
95	0xbe19bac3	-0.1501265
96	0x3e3d70ab	0.1850001
97	0x3b8bd935	0.0042678365
98	0xbdcd5472	-0.10025872
99	0xbe2be81e	-0.16787764
100	0xbdf72188	-0.120669425
101	0x3ea6dc97	0.32590172
102	0x3ed70526	0.41996115
103	0xbe2d9a71	-0.16953446
104	0x3e496b83	0.19669919
105	0xbe980000	-0.296875
106	0xbd48a683	-0.048986923
107	0x3ee1d475	0.44107404
108	0xbe0ae9d4	-0.13565761
109	0xbe357e02	-0.1772385
110	0xbdd5aec0	-0.104337215
111	0xbe0cdd0e	-0.137562
112	0xbe8d41f1	-0.27589372
113	0xbe5154c1	-0.20442487
114	0xbdf7ae2a	-0.12093766
115	0xbd9c8e2d	-0.076443054
116	0xbd0f50aa	-0.034989037
117	0x3ea260c6	0.31714457
118	0x3ef41086	0.47668856
119	0xbeb53004	-0.35388196
120	0x3e52d538	0.20589149
121	0x3f18ea3d	0.5973242
122	0xbbf18c17	-0.0073714363
123	0x3eee7147	0.465708
124	0x3e409de1	0.18810226
125	0xbe97e327	-0.2966549
126	0x3e0c8826	0.13723812
127	0x3e5ff480	0.21870613
128	0xbd86f74f	-0.06590139
129	0xbe2c9a4e	-0.16855738
130	0x3d9c4238	0.07629818
131	0x3d9ddb9d	0.077079035
132	0x3e7161b4	0.23572427
133	0xbc9f0b22	-0.019414488
134	0x3b08a328	0.0020849202
135	0xbd895a26	-0.067066476
136	0x3e3277ed	0.1742856
137	0xbea83fa1	-0.32861045
138	0xbdd07fd4	-0.10180631
139	0xbe1770c8	-0.14789116
140	0x3ec7a4b0	0.38992834
141	0xbd7d8918	-0.06189832
142	0xbe7bb57d	-0.24580951
143	0xbe5e871a	-0.21731225
144	0x3e176f77	0.14788614
145	0x3e39978c	0.18124217
146	0x3d28b598	0.041188806
147	0x3e74d7fc	0.23910517
148	0x3df2a684	0.118481666
149	0x3cfbfcf8	0.030760273
150	0xbe124bdc	-0.1428675
151	0x3e9917ee	0.2990107
152	0x3d83879d	0.064223506
153	0x3cb49eac	0.022048317
154	0xbdedc4bc	-0.1160979
155	0xbd4f5a1a	-0.050623037
156	0x3cabfd84	0.02099491
157	0xbd3c3938	-0.045953006
158	0xbe02bad3	-0.1276658
159	0xbd9775c2	-0.073955074
160	0x3ebadc89	0.3649638
161	0xbcf94cd1	-0.030432137
162	0xbc10ef71	-0.00884615
163	0xbd5a7647	-0.053335454
164	0xbdd7ced8	-0.10537499
165	0x3dc2f5e2	0.09519555
166	0xbd41fee9	-0.047362242
167	0xbe614dd3	-0.22002344
168	0x39cb9c6e	0.00038835726
169	0x3e8bdb28	0.2731564
170	0x3e0cc7dc	0.13748115
171	0x3da84174	0.08215609
172	0xbd4510b3	-0.04811163
173	0xbd41bad7	-0.047297325
174	0xbde1aa92	-0.11018862
175	0x3e09b87c	0.13449281
176	0x3e466d2a	0.1937758
177	0x3cdab330	0.026696771
178	0x3df4ab2e	0.119467124
179	0xbea8d1b1	-0.32972482
180	0x3cb7781e	0.022396144
181	0x3aa7dfdb	0.0012807803
182	0x3e152f62	0.14568856
183	0xbdeb2b2f	-0.11482846
184	0xbd906f25	-0.07052449
185	0x3e4d9d20	0.2007947
186	0x3dc485b4	0.09595814
187	0xbec8d5e0	-0.39225674
188	0x3c8812c0	0.016610503
189	0x3d9da043	0.07696583
190	0xbd9a5e4e	-0.075375184
191	0x3c957fe6	0.018249463
192	0x3e1ab450	0.15107846
193	0xbef74456	-0.48294324
194	0xbe75eb7f	-0.24015616
195	0xbe0328b6	-0.12808499
196	0x3dcd9990	0.10039055
197	0x3dffd8a4	0.12492493
198	0x3d6c9151	0.057755772
199	0x3e3ecd77	0.18633066
200	0x3dbf6b87	0.09346681
201	0x3e2ee3d8	0.17079103
202	0x3d7c68cd	0.061623383
203	0xbcacb1da	-0.0210809
204	0xbe491bac	-0.19639462
205	0x3e6f9bd1	0.23399283
206	0xbdb4e0d3	-0.08831944
207	0xbdd0f474	-0.10202876
208	0x3d9d4f90	0.07681191
209	0xbe078130	-0.13232875
210	0xbd34f16b	-0.044175547
211	0x3d490203	0.049074184
212	0xbea25d05	-0.31711593
213	0x3e14807a	0.14502135
214	0xbe8c2b01	-0.2737656
215	0x3e4d1522	0.20027593
216	0xbdcf6b7a	-0.101279214
217	0xbd61e191	-0.055146758
218	0x3e14c5fe	0.14528653
219	0x3d85e8b6	0.06538527
220	0xbcc91ea0	-0.024550736
221	0x3e10635a	0.141004
222	0x3d1e9be3	0.038722884
223	0xbdaab520	-0.08335328
224	0x3de70d3b	0.112818204
225	0xbbc8760f	-0.0061175893
226	0xbd7671a6	-0.060166977
227	0xbbc4770b	-0.0059956363
228	0xbd40d50f	-0.04707819
229	0xbdd505a0	-0.104014635
230	0x3d9e8904	0.077409774
231	0xbe98a958	-0.298167
232	0xbea6c652	-0.3257318
233	0xbdbff669	-0.09373171
234	0x3dd92aa8	0.10603839
235	0xbe1aa654	-0.15102512
236	0xbd6e7d0f	-0.058224734
237	0xbd439b7a	-0.047755696
238	0xbdbf4ea6	-0.09341173
239	0xbe6f25d5	-0.23354276
240	0xbd297f09	-0.041380916
241	0xbdb0d882	-0.086350456
242	0xbd7005fe	-0.058599465
243	0xbd63b9fb	-0.055597287
244	0x3e318d18	0.17338979
245	0x3e42cadf	0.19022702
246	0xbea84aa4	-0.32869446
247	0x3e4299f9	0.19004048
248	0xbd17cbe3	-0.037059676
249	0x3e3656f3	0.17806606
250	0x3ecc06aa	0.39848834
251	0x3e39d9d4	0.18149501
252	0x3d97fd33	0.07421341
253	0x3e49413f	0.19653796
254	0xbe3b462d	-0.18288489
255	0x3dea3205	0.11435322

encoder.2.bias f4 [16]
0	0x3ea007bc	0.312559
1	0xbf1b3cd4	-0.6063969
2	0x3d0669e5	0.032815833
3	0x3d110569	0.03540555
4	0x3d826220	0.06366372
5	0x3ebd9f3d	0.37035552
6	0x3ead539a	0.33852845
7	0xbe478d78	-0.1948756
8	0x3ec33d59	0.38132742
9	0x3e1a50a3	0.15069823
10	0x3e45b7e0	0.19308424
11	0x3ebee72e	0.3728575
12	0xbe36be9c	-0.17846149
13	0x3e8cdc99	0.27512053
14	0x3e67df33	0.22643737
15	0x3ebb8e6c	0.36632097

encoder.4.weight f4 [32, 16, 3, 3]
0	0x3e2f19f1	0.1709974
1	0xbf1da7e3	-0.615843
2	0x3dd38307	0.10327726
3	0xbed9bd18	-0.4252708
4	0xbea025f3	-0.31278953
5	0x3d863d73	0.06554689
6	0xbe436b9f	-0.19084023
7	0xbea0e23d	-0.31422606
8	0x3c99c412	0.018770251
9	0x3e5d4a27	0.21610318
10	0xbda61da7	-0.081111245
11	0x3e017aae	0.12644455
12	0x3d48eb45	0.049052496
13	0xbe4c6c94	-0.19963294
14	0xbd6036b4	-0.05473967
15	0xb9a590d5	-0.0003157916
16	0xbdbabacb	-0.09117659
17	0xbe036d8b	-0.12834756
18	0xbe052ba4	-0.13004929
19	0xbde1869d	-0.110120036
20	0xbdff8047	-0.12475639
21	0x3ea85a3c	0.32881343
22	0x3d487e33	0.048948478
23	0x3d0605be	0.03272032
24	0xbde1abf2	-0.11019124
25	0xbe427020	-0.18988085
26	0xbdd5bd6e	-0.104365215
27	0x3d9fdfbb	0.07806345
28	0x3e408b4b	0.18803136
29	0x3bd7c6b6	0.0065849675
30	0x3ec24aad	0.37947598
31	0x3ea0f855	0.31439462
32	0x3bed1171	0.007234745
33	0x3eb89de6	0.36057967
34	0x3ede14c7	0.43375227
35	0x3dc1b738	0.09458774
36	0x3d91264d	0.070873834
37	0x3e837cf1	0.2568126
38	0x3d1841e2	0.037172206
39	0x3ea397bb	0.319517
40	0x3e165183	0.14679532
41	0x3e1fc949	0.15604128
42	0x3ef7ab3b	0.48372826
43	0x3edd39b9	0.432081
44	0x3e0fd9a4	0.14047867
45	0x3ebaba7d	0.36470404
46	0xbe9ca313	-0.30593166
47	0xbd92334b	-0.071386896
48	0xbe1b067c	-0.15139192
49	0xbbcb8a4a	-0.0062115537
50	0x3e4741c1	0.19458677
51	0xbe42884a	-0.18997303
52	0x3d33d851	0.043907467
53	0xbde0a418	-0.109687984
54	0xbcef8ac5	-0.029240975
55	0x3e1f3c55	0.15550359
56	0x3dfacbc6	0.12245898
57	0xbe1fca71	-0.15604569
58	0x3e0df658	0.13863504
59	0xbbec5bbe	-0.007213085
60	0x3e6d0667	0.23146974
61	0xbe794eb8	-0.24346435
62	0xbd0ddec3	-0.03463627
63	0x3e60d5d2	0.21956566
64	0x3d4c26b3	0.049841594
65	0x3dfb9102	0.122835174
66	0xbe5d9b44	-0.2164126
67	0xbe3a56f3	-0.18197231
68	0xbd02dccc	-0.03194885
69	0xbe840587	-0.25785467
70	0xbe16039f	-0.14649819
71	0xbd9411ad	-0.07229934
72	0xbec27b03	-0.37984475
73	0xbd19cd1f	-0.037549134
74	0xbddf502e	-0.10903965
75	0x3f773630	0.9656706
76	0xbd2b2a5b	-0.04178844
77	0xbe9726ec	-0.29521883
78	0xbe818226	-0.25294608
79	0xbdb24dfe	-0.08706282
80	0xbcddf13d	-0.02709257
81	0xbd756167	-0.059907343
82	0x3d0e54fd	0.03474902
83	0xbeb46fd0	-0.35241556
84	0x3e4b8e91	0.19878604
85	0xbd8794e8	-0.066201985
86	0xbcf33696	-0.029689115
87	0x3f2aab4c	0.6666763
88	0x3d80e318	0.06293315
89	0xbe84956b	-0.25895247
90	0x3e6c2bb9	0.23063554
91	0xbe062fd1	-0.13104178
92	0xbc894f56	-0.016761463
93	0x3dbdfc36	0.09276621
94	0xbedafe48	-0.42772126
95	0x3e50f1bb	0.20404713
96	0xbe61f958	-0.22067773
97	0xbd3aea68	-0.045633703
98	0xbcf23f1a	-0.029571105
99	0x3e9cbfb4	0.30615008
100	0xbe7c6c58	-0.24650705
101	0x3eab3d1d	0.33445063
102	0x3e5d0fa2	0.21587995
103	0xbd92dd9d	-0.07171176
104	0xbe5143b1	-0.20435978
105	0x3edb270d	0.4280323
106	0xbe172786	-0.1476117
107	0xbde1331e	-0.10996078
108	0xbd83d507	-0.06437116
109	0x3d8048d8	0.06263894
110	0x3c062973	0.008188593
111	0x3e4fb25d	0.20282884
112	0x3d4231aa	0.047410645
113	0x3df98b7a	0.12184806
114	0xbca09e50	-0.01960674
115	0x3dde80ca	0.10864408
116	0x3e75149c	0.23933643
117	0xbda2a2b3	-0.07941189
118	0x3e9726ee	0.29521888
119	0x3dbf22ba	0.093327954
120	0xbebe2567	-0.3713791
121	0x3dbb4b45	0.09145216
122	0x3b330444	0.0027315775
123	0xbc95c01e	-0.018280085
124	0xbe792edc	-0.24334282
125	0xbe0dd871	-0.13852097
126	0x3e942a4d	0.28938523
127	0x3e9f96ce	0.31169742
128	0xbdb87f65	-0.090086736
129	0xbeea9bd7	-0.4582202
130	0x3d7da39c	0.06192361
131	0xbe3435c2	-0.17598632
132	0xbe34f7aa	-0.17672601
133	0xbd3022bc	-0.043001875
134	0xbe50620e	-0.20349905
135	0x3f75cb2a	0.9601313
136	0xbf301881	-0.6878739
137	0xbe2aea61	-0.16690971
138	0x3c4f13c8	0.012638994
139	0xbed4f43e	-0.41592592
140	0xbd8261c0	-0.063663006
141	0xbe4a31fd	-0.19745632
142	0xbd64ca41	-0.055856947
143	0x3b8c897b	0.00428885
144	0x3e0ca993	0.13736562
145	0x3db31ae2	0.08745362
146	0xbc37a21e	-0.011208085
147	0x3e6d4cd4	0.23173839
148	0x3e015dd7	0.12633453
149	0xbc693883	-0.014234665
150	0xbcd0f4aa	-0.02550729
151	0xbe99164c	-0.29899824
152	0x3d06a6f1	0.03287405
153	0xbd4a2aba	-0.049357153
154	0x3dce4686	0.10072045
155	0x3cb570c9	0.022148507
156	0xbe83179c	-0.2560395
157	0xbe6743e0	-0.22584486
158	0x3d9eae52	0.07748093
159	0xbe568eb1	-0.2095287
160	0xbd9ebbd6	-0.077506706
161	0x3e462294	0.19349128
162	0x3c92d492	0.017923627
163	0x3cd556b8	0.026042327
164	0x3d218590	0.039434016
165	0x3e193fff	0.14965819
166	0x3df8ecf7	0.121545725
167	0x3d6aa023	0.057281625
168	0xbe096bb3	-0.1341999
169	0x3c8671aa	0.016411621
170	0xbd040c8a	-0.03223852
171	0xbd0ff32e	-0.035144024
172	0xbc535a6c	-0.012899976
173	0xbd89764a	-0.06712015
174	0xbcc4c599	-0.024020003
175	0x3b120657	0.002228161
176	0x3ca08ebc	0.019599311
177	0x3e37e3e4	0.17958027
178	0x3e5b6594	0.21425468
179	0xba0ee951	-0.0005451637
180	0xbdb509e9	-0.08839781
181	0x3c0372cf	0.008022978
182	0x3d228df0	0.039686143
183	0xbeda291f	-0.42609498
184	0xbee07eb6	-0.43846673
185	0xbe7bc1a4	-0.24585587
186	0x3cf1dbda	0.029523779
187	0x3de3dfb1	0.1112665
188	0x3d31e930	0.043435276
189	0xbda09d8d	-0.078425504
190	0x3dd63610	0.1045953
191	0xbc13545e	-0.008992283
192	0xbe87b390	-0.26504183
193	0xbb9314ff	-0.004488587
194	0xbddbf9cd	-0.10741005
195	0x3dcdead8	0.100545585
196	0x3d8728cd	0.06599579
197	0xbcec6c6a	-0.02886029
198	0xbd7d1349	-0.06178597
199	0xbdd6aff4	-0.10482779
200	0xbc073fd8	-0.008254968
201	0x3deabf30	0.11462247
202	0x3db4b8c1	0.088243015
203	0x3e16c888	0.14724934
204	0x3d7856c2	0.060629614
205	0xbc848a72	-0.016179297
206	0x3bb343af	0.005470715
207	0x3d27a873	0.04093213
208	0x3c921c9d	0.01783591
209	0xbd203558	-0.039113373
210	0x3e1e702c	0.15472478
211	0x3e03e146	0.12878904
212	0x3d87496e	0.066058025
213	0x3b885de1	0.004161582
214	0xbdf94043	-0.1217046
215	0x3c93c763	0.018039411
216	0xbc70ff03	-0.014709237
217	0x3ca33ba3	0.019925898
218	0x3cac16c6	0.021006953
219	0x3e8d9db9	0.27659395
220	0x3e816c4d	0.2527794
221	0xbd26f0a9	-0.040756855
222	0xbb8f9125	-0.0043813162
223	0x3e3397e5	0.17538412
224	0x3c4d7458	0.012539946
225	0xbd86ccae	-0.06582008
226	0xbd83320f	-0.06406032
227	0x3d9f1272	0.0776719
228	0x3ac312cd	0.0014882922
229	0xbd81afde	-0.06332372
230	0xbc95c45e	-0.018282112
231	0xbb94c811	-0.0045404513
232	0xbda59aa2	-0.080861345
233	0x3d8730b3	0.066010855
234	0xbe223a74	-0.1584261
235	0xbca86cc8	-0.020559683
236	0x3c6fe9e3	0.014643165
237	0x3eac14b1	0.33609536
238	0x3dd42a52	0.103596345
239	0xbd00e35e	-0.031466834
240	0xbd077080	-0.033066273
241	0xbc74fe43	-0.014953199
242	0xbd4b793a	-0.049676158
243	0xbc2f5480	-0.010701299
244	0x3df2b9f8	0.11851877
245	0xbcb443d1	-0.022004994
246	0xbea50341	-0.32229045
247	0x3de51b0f	0.11186802
248	0x3e17f3e9	0.14839138
249	0x3d65b660	0.05608213
250	0x3e7f5bb3	0.24937324
251	0x3d4b283a	0.04959891
252	0xbe72c561	-0.23708107
253	0xbd478bff	-0.048717495
254	0x3dc1c80d	0.09461985
255	0x3da87a08	0.082264006

encoder.4.bias f4 [32]
0	0x3e894e42	0.26817518
1	0x3e51d31f	0.20490693
2	0xbf20f4bb	-0.6287343
3	0xbdf2c55d	-0.1185405
4	0x3e439015	0.19097932
5	0x3e3f8498	0.18702924
6	0x3e26fdcf	0.16307758
7	0x3ef13164	0.47107995
8	0xbd910e03	-0.07082751
9	0x3effe7b1	0.49981454
10	0x3ef49d80	0.47776413
11	0xbd026b57	-0.03184065
12	0x3e85f0a8	0.2616017
13	0xbcc874d7	-0.024469776
14	0xbde83922	-0.11339022
15	0xba93fcf5	-0.0011290597
16	0x3e46fe73	0.19433002
17	0xbc1ec8a2	-0.009691389
18	0xbc093c80	-0.008376241
19	0x3ed67348	0.41884828
20	0x3ecc405c	0.39892852
21	0xbdb2bbce	-0.08727227
22	0x3eebc68f	0.46049926
23	0x3cef5ec3	0.02921999
24	0x3e97c3f3	0.29641685
25	0x3e38dac4	0.18052202
26	0x3e9a0b39	0.30086687
27	0xbe100f2f	-0.14068292
28	0x3f011e22	0.50436604
29	0x3ea69282	0.32533652
30	0x3d3f0d5b	0.046643596
31	0xbe569297	-0.20954357

decoder.0.weight f4 [32, 16, 3, 3]
0	0xbe388d2a	-0.180226
1	0x3e5ca2a3	0.21546416
2	0x3e66c006	0.22534189
3	0x3de73e9e	0.1129124
4	0xbe1757e0	-0.14779615
5	0xbde89b98	-0.11357802
6	0x3e258a9e	0.1616616
7	0xbe16e7ba	-0.14736834
8	0x3db11d55	0.08648173
9	0x3dfacb38	0.12245792
10	0xbe32b23d	-0.17450805
11	0x3b9daca2	0.004811839
12	0x3e9f3889	0.3109782
13	0x3d906cb0	0.070519805
14	0x3d233c2b	0.039852303
15	0x3e96f89c	0.2948655
16	0x3d4a7ef8	0.049437493
17	0xbd10ed89	-0.03538278
18	0x3d520251	0.05127174
19	0xbe2fef1a	-0.17181054
20	0xbc31891c	-0.010835912
21	0x3f380b20	0.71891975
22	0xbe9af117	-0.30262062
23	0xbdc0d365	-0.0941532
24	0xbe4c9874	-0.19980031
25	0x3d9bc56c	0.076060146
26	0xbd94b358	-0.072607696
27	0xbe961f52	-0.2932077
28	0xbe55d55f	-0.20882176
29	0xbdce6d1f	-0.10079407
30	0x3e5210d1	0.20514227
31	0x3ef42430	0.4768386
32	0x3da17342	0.07883312
33	0x3e5b0974	0.21390325
34	0x3ec6e5e3	0.38847265
35	0x3cf2aad5	0.029622475
36	0x3e4fb552	0.20284012
37	0xbe9ff153	-0.31238803
38	0xbb4d51b0	-0.0031329207
39	0x3e210adf	0.15726803
40	0xbcea2fde	-0.028587278
41	0xbdf8314b	-0.12118777
42	0x3d879f35	0.06622163
43	0x3e1d148e	0.15339872
44	0x3c640292	0.013916628
45	0x3ddca922	0.10774447
46	0xbded563f	-0.11588716
47	0xbdd54398	-0.10413283
48	0x3e8ab0fb	0.2708815
49	0x3eb3edf9	0.35142496
50	0x3d00e82b	0.031471413
51	0x3eca1c81	0.39474872
52	0x3ef9db06	0.48799914
53	0x3e4c12fb	0.19929115
54	0xbe30df01	-0.17272569
55	0x3ed64373	0.41848335
56	0x3df00993	0.11720576
57	0xbcdd3a98	-0.027005479
58	0x3cb135f1	0.021632167
59	0x3c95f53d	0.018305415
60	0xbe3169c6	-0.17325506
61	0xbda28327	-0.079351716
62	0x3d917510	0.07102406
63	0xbd8093d7	-0.06278198
64	0x3f1c711e	0.61110103
65	0x3d995f0e	0.07488833
66	0xbdc350b5	-0.09536878
67	0x3ec18d3e	0.37803072
68	0x3de78bd3	0.11305966
69	0x3e3c7559	0.1840414
70	0x3f04c9eb	0.518706
71	0x3e3ce1b8	0.1844548
72	0xbd9cf7e8	-0.07664472
73	0x3d806ac3	0.06270363
74	0xbcb830fb	-0.022484293
75	0xbe2a6cbc	-0.16643041
76	0x3e4312a4	0.1905008
77	0xbd4d0895	-0.050057013
78	0x3e6caaa0	0.23111963
79	0x3da8ba31	0.08238638
80	0x3d165e50	0.036711037
81	0xbdb64c0e	-0.08901225
82	0xbec3787f	-0.3817787
83	0xbd510427	-0.05102935
84	0x3c24c0f0	0.0100557655
85	0xbe93cf24	-0.28868973
86	0x3e655e4e	0.22399256
87	0xbe694e27	-0.22783719
88	0xbe3f0af7	-0.18656527
89	0x3c87f840	0.016597867
90	0x3d757074	0.059921697
91	0x3e9e4b4a	0.30916816
92	0xbe199823	-0.14999442
93	0x3e5a4185	0.21314056
94	0x3e75de1f	0.24010514
95	0x3e310a4c	0.17289084
96	0x3ef76425	0.48318592
97	0x3e44ae17	0.19207035
98	0x3c9d7417	0.019220395
99	0x3cc838ff	0.02444124
100	0x3e83b5df	0.25724694
101	0x3dceb91f	0.10093903
102	0xbe39cc1d	-0.1814427
103	0xbcad0023	-0.02111823
104	0xbdb3fa19	-0.08787937
105	0xbe18d9c5	-0.14926822
106	0xbe9c9fb9	-0.3059061
107	0xbe176d5e	-0.14787814
108	0x3e804b25	0.2505733
109	0xbd7aad5d	-0.06120049
110	0xbe10f0da	-0.14154378
111	0x3e72bd23	0.23704962
112	0xbe5bf10e	-0.21478674
113	0x3eace7f2	0.3377071
114	0x3e05cea6	0.13067111
115	0x3c893294	0.01674775
116	0xbb41ec0a	-0.0029590153
117	0x3da04f88	0.078276694
118	0xbbdc46ac	-0.006722292
119	0xbe1aefc5	-0.15130527
120	0x3f06b613	0.52621573
121	0x3d512691	0.05106217
122	0xbcaa8ea5	-0.020819971
123	0x3f3844bc	0.7197988
124	0x3ec4f13b	0.38465294
125	0x3dcc488d	0.099747755
126	0x3f297d33	0.66206664
127	0xbf070be7	-0.52752537
128	0x3daf0599	0.085459895
129	0xbed43050	-0.4144311
130	0xbec0a430	-0.37625265
131	0xbdb49857	-0.08818119
132	0xbd03bba9	-0.03216139
133	0xbdce966b	-0.10087284
134	0xbb23ff30	-0.002502393
135	0xbe0f22a6	-0.13978061
136	0xbecb176b	-0.39666304
137	0xbcb668df	-0.022266803
138	0x3f121004	0.5705569
139	0xbddfb1a9	-0.10922558
140	0x3bae65dc	0.005322201
141	0xbe3bc89e	-0.18338248
142	0x3dc10392	0.09424509
143	0x3d93feeb	0.07226356
144	0x3cd518b8	0.026012763
145	0xbded7b94	-0.11595836
146	0xbca73244	-0.02040971
147	0x3e477ea7	0.19481908
148	0xbd1c2c25	-0.038128037
149	0xbdb6e4ec	-0.08930382
150	0x3da3f470	0.08005607
151	0x3de5be23	0.11217906
152	0x3df4de14	0.119564205
153	0xbc092483	-0.0083705215
154	0x3dd0e9b0	0.10200822
155	0x3d2251b7	0.03962871
156	0xbea68d45	-0.32529655
157	0xbd66f784	-0.056388393
158	0xbd095998	-0.03353271
159	0xbb93f4d0	-0.004515268
160	0x3da295a9	0.07938702
161	0x3d3a8a5c	0.045542106
162	0xbe0cab9f	-0.13737343
163	0x3d7e5adc	0.06209837
164	0x3d28a08b	0.04116873
165	0x3eaedcfe	0.3415298
166	0x3defb8c0	0.1170516
167	0x3da02f1b	0.07821485
168	0xbd293ac9	-0.041315828
169	0x3e7f439a	0.24928132
170	0x3c295034	0.010334063
171	0xbdec53d7	-0.11539429
172	0xbdb9e776	-0.09077351
173	0xbd675bf2	-0.05648417
174	0x3df0aaa9	0.11751301
175	0x3df12918	0.11775416
176	0xbd8bca4e	-0.06825696
177	0x3eaac6c9	0.33354786
178	0x3ef86821	0.48516944
179	0x3ddf69d2	0.109088555
180	0xbd7a743a	-0.061146
181	0x3d99d5a1	0.075114496
182	0x3c02cfb4	0.007984091
183	0xbe88b78f	-0.26702544
184	0x3dbbd9d3	0.09172406
185	0xbba58251	-0.0050509353
186	0x3dd123d1	0.102119096
187	0x3e90d848	0.2829001
188	0x3dc3c803	0.095596336
189	0xbe166bb1	-0.14689519
190	0xbd927da0	-0.07152867
191	0x3cd10ae8	0.025517896
192	0xbe8b51c0	-0.27210808
193	0xbe1f1bbd	-0.15537925
194	0x3c08eaa1	0.008356721
195	0xbc982c91	-0.018575938
196	0x3cc76398	0.024339482
197	0xbc8248be	-0.015903827
198	0xbbddc62c	-0.0067680087
199	0xbd9c2a2a	-0.0762523
200	0x3c8fd501	0.017557623
201	0x3e56a5f3	0.20961742
202	0xbe155df6	-0.14586625
203	0xbd2ee4c6	-0.042698644
204	0x3d1e4208	0.03863719
205	0xbdb6bbc4	-0.08922532
206	0x3d11ce0c	0.035596892
207	0xbdf6b2ac	-0.12045798
208	0xbdce87d4	-0.10084501
209	0xbd8385b1	-0.06421984
210	0xbed4740d	-0.4149479
211	0xbe1069e0	-0.14102888
212	0x3d9d4cd3	0.07680669
213	0x3e0905d0	0.13381124
214	0x3ed11022	0.4083262
215	0x3c6a2515	0.014291068
216	0x3d9ae62e	0.075634345
217	0xbd345e40	-0.044035196
218	0x3db688ba	0.08912797
219	0xbd17ca8a	-0.03705839
220	0x3d07172c	0.032981083
221	0x3de219cf	0.11040079
222	0x3bdec1c7	0.0067980024
223	0x3d3adc71	0.045620386
224	0x3d62a3c8	0.055331975
225	0x3c1b8f2f	0.009494587
226	0x3d5d66ea	0.054053225
227	0x3cfe8939	0.031071292
228	0x3eb2f4b0	0.34952307
229	0x3dd21b71	0.1025914
230	0xbe3d5cc6	-0.18492422
231	0x3c898ba0	0.016790211
232	0xbe75b966	-0.23996505
233	0x3d9adf5b	0.07562133
234	0xbed68bf1	-0.41903642
235	0xbedc1073	-0.429813
236	0x3d61144a	0.05495099
237	0xbbd2d0e0	-0.0064335912
238	0xbe3bfb2e	-0.18357536
239	0xbcdb4842	-0.026767854
240	0x3e3f2ae7	0.1866871
241	0x3d95f23e	0.07321595
242	0x3d3f6a30	0.046732128
243	0x3cb29a9f	0.021802245
244	0xbde60872	-0.112320796
245	0xbb61f708	-0.0034479517
246	0x3dc8c0ad	0.09802375
247	0xbd6ac08f	-0.057312544
248	0xbb9bd207	-0.004755262
249	0xbd862d17	-0.06551569
250	0xbdf56cc0	-0.11983633
251	0xbc182824	-0.009286914
252	0xbd68e21d	-0.056856263
253	0x3c3778d3	0.01119824
254	0xbdf0440c	-0.11731729
255	0x3b372fa5	0.0027951982

decoder.0.bias f4 [16]
0	0xbce88142	-0.028381947
1	0x3f028ebd	0.5099905
2	0xbf28598c	-0.6576164
3	0x3d9f1d47	0.07769256
4	0xbec4f872	-0.384708
5	0x3e4f8522	0.2026563
6	0xbf1813ac	-0.59405017
7	0x3f25e5bd	0.6480368
8	0x3ea4ec44	0.32211506
9	0xbe1c246e	-0.15248272
10	0x3e971de5	0.29514995
11	0xbe1fb054	-0.15594608
12	0x3ea2ba47	0.31782743
13	0x3ea15cef	0.31516215
14	0xbdb7045f	-0.089363806
15	0x3f990373	1.1954178

decoder.2.weight f4 [16, 8, 3, 3]
0	0x3b955321	0.004557029
1	0x3e577740	0.21041584
2	0x3da0e89e	0.07856868
3	0x3d81d81b	0.06340047
4	0xbda0443d	-0.078255154
5	0x3e027766	0.1274086
6	0x3f14ec26	0.58172834
7	0xbd75ba56	-0.059992157
8	0xbe201483	-0.15632825
9	0x3d110e63	0.03541411
10	0x3e8e5433	0.27798614
11	0xbd125212	-0.0357228
12	0xbe4aa992	-0.19791248
13	0x3df54a50	0.119770646
14	0xbe5ba8fd	-0.21451183
15	0xbe447705	-0.19186027
16	0x3df1e6c3	0.118115924
17	0x3df5667d	0.11982439
18	0xbdaea74d	-0.08528004
19	0xbdfb58df	-0.1227281
20	0xb9e5ca26	-0.00043828896
21	0x3e362323	0.17786841
22	0xbc83261a	-0.01600938
23	0xbdd4bd99	-0.103877254
24	0xbf3024b6	-0.68806016
25	0x3e29bd71	0.16576172
26	0x3e2bc366	0.16773757
27	0xbc713990	-0.014723197
28	0x3ebfb486	0.37442416
29	0xbcf89a6f	-0.030347077
30	0xbdf3e532	-0.1190895
31	0xbc911211	-0.01770881
32	0xbccf655d	-0.025316888
33	0x3c5f121a	0.013615156
34	0x3deaa7ac	0.11457762
35	0x3dc40d76	0.0957288
36	0x3b20a977	0.0024515071
37	0xbd9eff3a	-0.07763524
38	0xbd8b8605	-0.068126716
39	0xbeea0c04	-0.45712292
40	0x3cc12026	0.0235749
41	0x3c121672	0.008916484
42	0x3ede34b5	0.43399587
43	0xbdbf7507	-0.09348493
44	0xbddaf53d	-0.10691307
45	0xbd09d444	-0.033649698
46	0x38fd5141	0.00012079115
47	0x3c9b747d	0.018976444
48	0x3df6fae2	0.12059571
49	0xbe0f6648	-0.14003861
50	0x3e1e4206	0.15454873
51	0x3e4f734b	0.20258825
52	0xbdbcf6af	-0.09226739
53	0xbc60330d	-0.013684046
54	0x3ebc2992	0.36750466
55	0x3ef6b579	0.48185328
56	0xbdaa0a50	-0.08302748
57	0x3d39fa2d	0.0454046
58	0xbdd65cf1	-0.10466946
59	0xbd1dff27	-0.03857341
60	0xbd07021d	-0.032961
61	0x3b376267	0.0027982236
62	0x3cfc06e5	0.030765006
63	0xbda748b6	-0.081681654
64	0x3dce7629	0.10081131
65	0x3c8b36ed	0.016993964
66	0x3df78ed2	0.12087788
67	0x3eab2833	0.33429107
68	0xbde1c1fa	-0.11023326
69	0x3dc4e2be	0.0961356
70	0x3d1e14b3	0.03859396
71	0x3d2a3d1d	0.04156219
72	0xbcf10772	-0.029422496
73	0x3e1b5e5c	0.15172714
74	0x3d4c87ef	0.049934324
75	0x3d49ffb8	0.049316138
76	0xbe096e5c	-0.13421005
77	0xbe40570e	-0.18783209
78	0x3d7c93b2	0.06166429
79	0x3d867f9c	0.06567308
80	0xbede9651	-0.43474057
81	0xbd61002b	-0.0549318
82	0x3d50f312	0.05101306
83	0x3d486024	0.04891981
84	0x3da65046	0.0812078
85	0x3e5f4801	0.21804811
86	0x3e91bce7	0.28464434
87	0xbd599cdb	-0.053128105
88	0xbe0ca175	-0.13733466
89	0x3e843402	0.2582093
90	0x3da68c6b	0.08132251
91	0xbd791ef2	-0.060820527
92	0xbe06f77d	-0.13180347
93	0x3ea05382	0.3131371
94	0x3f28d8ea	0.65955985
95	0x3ed10b48	0.4082892
96	0xbe563ac6	-0.20920858
97	0xbe8a96e5	-0.27068248
98	0x3e9b8e1e	0.30381864
99	0xbe4ad789	-0.19808783
100	0x3d57774b	0.052604
101	0x3e2a93d9	0.16657962
102	0x3e048049	0.12939562
103	0x3e1f41e3	0.15552478
104	0x3e42b941	0.19015981
105	0xbd331dd8	-0.043729633
106	0x3cb0d7b2	0.021587227
107	0x3d99612a	0.07489236
108	0xbd031253	-0.031999897
109	0x3da1db4f	0.07903158
110	0x3d10660e	0.035253577
111	0xbe03249d	-0.12806936
112	0xbd91eade	-0.071248755
113	0xbf12448c	-0.57135844
114	0x3da3a398	0.079901874
115	0x3e5f6d3a	0.2181901
116	0xbd616f77	-0.05503794
117	0xbc688ceb	-0.014193754
118	0xbd98bd30	-0.0745796
119	0x3ddd86d7	0.10816734
120	0xbe356bf4	-0.17716962
121	0xbf06ce9f	-0.5265903
122	0xbedd9d86	-0.43284243
123	0x3dc88903	0.09791758
124	0x3bcfc195	0.0063402154
125	0xbdbbdbcd	-0.09172783
126	0xbe3ca660	-0.18422842
127	0x3e1a1ca8	0.15049994
128	0x3e805e55	0.2507197
129	0x3c4e43c2	0.012589397
130	0xbeace852	-0.33770996
131	0xbdd133ef	-0.10214984
132	0xbd577567	-0.052602198
133	0x3cf996fc	0.030467503
134	0x3ddcbb54	0.107779175
135	0x3d9d4b45	0.07680372
136	0xbb8bcd4a	-0.0042664157
137	0x3a786589	0.0009475579
138	0x3db02f9c	0.08602831
139	0x3ec2b322	0.38027292
140	0x3e8a20cc	0.26978147
141	0x3cc3661c	0.0238524
142	0x3c30282d	0.010751766
143	0xbc9c6964	-0.019093223
144	0xbc8d4782	-0.017246012
145	0xbe5d5093	-0.21612768
146	0xbe56a1f6	-0.2096022
147	0xbe53119f	-0.2061219
148	0x3c1fd7a4	0.009756003
149	0x3da1e798	0.07905501
150	0x3ed03266	0.4066345
151	0xbd424742	-0.047431238
152	0xbdfe5b9b	-0.12419816
153	0xba4b22e6	-0.0007749036
154	0xbe8ab37a	-0.27090055
155	0xbdf93505	-0.12168316
156	0x3e103b5d	0.14085145
157	0x3e898ad6	0.26863736
158	0xbe1d8698	-0.15383375
159	0xbdc9c964	-0.09852865
160	0xbbb7401c	-0.005592359
161	0x3e033578	0.12813365
162	0x3de91cf5	0.11382476
163	0x3eff67de	0.49883932
164	0x3e512afe	0.20426556
165	0x3e5ae1a7	0.21375142
166	0xbea98712	-0.33110863
167	0xbc928ce9	-0.017889457
168	0xbeec67d6	-0.4617297
169	0xb76f9544	-1.4280264e-05
170	0x3e4827b1	0.19546391
171	0xbcf856f5	-0.030314902
172	0xbe859306	-0.26088732
173	0xbc81c61b	-0.015841534
174	0x3e38eb10	0.18058419
175	0x3e77dc18	0.24205053
176	0x3c64d3d6	0.013966521
177	0x3b2c057d	0.0026248388
178	0x3d8b57c3	0.068038486
179	0x3db994a0	0.09061551
180	0xbd1e9469	-0.038715754
181	0xbd131623	-0.035909783
182	0x3d08e33d	0.033419836
183	0x3ee52753	0.44756564
184	0x3eafe6d8	0.34355807
185	0x3eb57d1c	0.35447013
186	0x3dc21adb	0.094777785
187	0xbd86d661	-0.06583858
188	0x3e0ad5b6	0.13558087
189	0x3d9071bb	0.07052942
190	0xbd12f170	-0.035874784
191	0xbe0cdf6b	-0.13757102
192	0xbea89364	-0.3292495
193	0x3d6f4bcf	0.058421906
194	0x3e661012	0.22467068
195	0x3e727809	0.23678602
196	0xbd650a68	-0.055918127
197	0xbd27ded1	-0.04098398
198	0xbead03c0	-0.33791924
199	0xbf7292cf	-0.9475526
200	0xbf067df3	-0.52535933
201	0xbd836a3a	-0.064167455
202	0x3e6c451e	0.23073241
203	0x3b9a6179	0.0047113267
204	0x3d8abbc1	0.067740925
205	0xbd057458	-0.032581657
206	0x3de04610	0.10950863
207	0x3e73345e	0.23750445
208	0xbcc5bae6	-0.024136972
209	0x3e7dda46	0.24790296
210	0x3d9f6ec4	0.07784799
211	0x3e8529ac	0.26008356
212	0xbe785e7d	-0.24254794
213	0x3dadb883	0.084824584
214	0x3c90b018	0.017662093
215	0xbc0aaf95	-0.008464714
216	0x3d40f464	0.04710807
217	0x3d4a07e8	0.049323946
218	0x3c37137c	0.011174079
219	0x3e3f6d05	0.18693931
220	0x3ce43333	0.027856445
221	0xbd671aa4	-0.05642189
222	0xbec59896	-0.38592976
223	0xbdbcf577	-0.09226506
224	0x3d6a8398	0.057254404
225	0xbd90c1f0	-0.07068241
226	0x3e0b14cc	0.13582152
227	0xbd7d6040	-0.06185937
228	0x3c9bbbda	0.019010473
229	0x3e9350ba	0.28772527
230	0xbdddbf74	-0.108275324
231	0xbd02b2f2	-0.031908937
232	0x3f1b33b6	0.6062578
233	0xbdbda4e8	-0.09259969
234	0x3d533c85	0.051571388
235	0x3d218814	0.039436415
236	0xbbcd5137	-0.006265785
237	0xbadab538	-0.0016686087
238	0xbcdd06a3	-0.026980704
239	0x3e161b14	0.14658767
240	0x3e66ca30	0.22538066
241	0xbdf1535e	-0.11783479
242	0x3d3d0c76	0.04615446
243	0xbd38b6cf	-0.045096215
244	0x3dbcc365	0.09216956
245	0x3ce7e477	0.028307183
246	0x3d26e37d	0.040744293
247	0x3e4869c9	0.19571604
248	0x3b8fc03d	0.0043869303
249	0x3d5a97e4	0.05336751
250	0x3e68029b	0.22657244
251	0xbde4fc49	-0.11180932
252	0xbdc4669f	-0.09589886
253	0xbcd48f1c	-0.025947146
254	0xbcd7fd03	-0.026365763
255	0x3dd40479	0.103524156

decoder.2.bias f4 [8]
0	0xbe8594e4	-0.26090157
1	0x3ddbbf97	0.10729902
2	0x3d6197ea	0.055076517
3	0x3ecd4e05	0.40098587
4	0xbf0e0c6d	-0.5548771
5	0xbf04f778	-0.5194011
6	0x3ee15924	0.4401332
7	0xbd9771ff	-0.0739479

decoder.4.weight f4 [8, 1, 3, 3]
0	0x3d874c4e	0.06606351
1	0x3e3d78c8	0.18503106
2	0x3e0abc21	0.13548328
3	0x3ee6de9e	0.45091718
4	0x3f875292	1.0572073
5	0x3f10b152	0.5652057
6	0xbbe2a9cf	-0.0069172154
7	0x3e9b0de2	0.3028403
8	0x3e4eadd1	0.20183493
9	0x3c743161	0.014904351
10	0xbc055e9b	-0.0081402315
11	0xbc4ad22d	-0.012379211
12	0xbedf5a23	-0.43623456
13	0xbf08e5fe	-0.5347594
14	0xbcebfedd	-0.028808052
15	0xbf0ec8b5	-0.55775005
16	0xbf47d750	-0.78062916
17	0xbda0c450	-0.07849944
18	0x3e081c3e	0.13292024
19	0xbeb93bbb	-0.36178383
20	0xbf0df939	-0.5545841
21	0x3c8b3979	0.016995179
22	0xbfada0dc	-1.3564715
23	0xbfcaccc4	-1.584374
24	0x3e904769	0.28179482
25	0x3e47b3b9	0.19502153
26	0xbe690ee2	-0.22759584
27	0x3df04a58	0.1173293
28	0x3d710bc6	0.05884912
29	0xbd83a117	-0.0642721
30	0x3c210579	0.009827965
31	0xbea35415	-0.31900087
32	0xbea7065c	-0.3262204
33	0xbea4c3de	-0.32180685
34	0xbf5a5190	-0.85280704
35	0xbf02883b	-0.5098912
36	0x3ec74802	0.38922125
37	0x3f55c788	0.83507586
38	0x3f20cf48	0.62816286
39	0xba9b06e1	-0.0011827612
40	0x3e3ef467	0.1864792
41	0x3e018204	0.12647253
42	0xbd291401	-0.041278843
43	0xbd3b2576	-0.045690022
44	0xbd8d4d46	-0.06899504
45	0x3e580987	0.21097384
46	0x3e93e41d	0.28884974
47	0x3d45b75e	0.048270576
48	0x3f155d3b	0.58345383
49	0x3f94008c	1.1562667
50	0x3f2210d5	0.63306934
51	0x3b6742d2	0.003528763
52	0x3eef4104	0.4672929
53	0x3ed46448	0.4148276
54	0xbd68d0d4	-0.05683978
55	0xbd0d1fb7	-0.034454074
56	0x3d1180b3	0.035523128
57	0x3d71ffd9	0.059081886
58	0x3e4631c4	0.19354922
59	0x3e0611fd	0.130928
60	0xbf923932	-1.1423705
61	0xbffb4bc4	-1.9632497
62	0xbf6747ad	-0.90343744
63	0xbe398abf	-0.18119334
64	0x3d822281	0.06354237
65	0x3ebbe896	0.36700886
66	0xbf76038a	-0.9609915
67	0xbf1364f6	-0.5757593
68	0x3ed341f0	0.41261244
69	0xbf02e0af	-0.5112409
70	0x3dc60470	0.09668815
71	0x3eeb950d	0.46012154
